models/handwriting_encoder_01.pth (torch, 534008 bytes, 4 tensors)

LSTM.weight_ih_l0 f4 [720, 3]
000000 43 94 6d be a3 53 3b 3d a4 23 d3 be 1c 78 b5 3c
       -0.23201089 0.04573406 -0.4123813 0.022152
000010 8f c2 7f 3e 18 2b 65 be 26 00 93 3d a9 cc a5 3e
       0.24976562 -0.2237972 0.07177763 0.32382706
000020 82 ad 19 3e ad 82 5e 3e a7 74 39 3e 8b a5 57 3e
       0.15007594 0.21729536 0.18110906 0.21059243
000030 3e 21 05 be 59 f3 b5 be f9 ae de 3d 6e 1e 40 3e
       -0.13000962 -0.35537222 0.10873217 0.18761608
000040 96 e6 ac 3d f4 57 10 3e ff 8c 53 be 87 ee 9d bc
       0.08442418 0.14096051 -0.20659254 -0.019278778
000050 c4 66 ed bd a0 fb 81 3d cc 77 e6 bd 01 8c e6 3e
       -0.115918666 0.06346822 -0.11253318 0.4502869
000060 51 7e da 3c 84 ec 8d bd 83 69 d7 3e 92 2b dc 3e
       0.02667156 -0.069298774 0.42072687 0.43001992
000070 d7 15 0f 3f 28 e0 23 3f 6b e2 21 3f 67 d5 1f 3e
       0.558927 0.6401391 0.6323611 0.1560875
000080 84 a4 1f bf 10 a1 69 3e e7 0d eb 3d 3e ca c2 3e
       -0.62360406 0.22815347 0.11477261 0.38044924
000090 90 d7 02 bf 3d 66 3c be ed 4d 40 bf 7c 9b 8f 3f
       -0.5111017 -0.18398376 -0.75118905 1.1219325
0000a0 80 b7 6d 3d 7c b2 bc bd ff b8 04 3f 0c f3 3c 3d
       0.058036327 -0.09213731 0.5184478 0.046130225
0000b0 00 65 30 3f 63 89 e8 3e 67 9c bf 3d be bd 02 bf
       0.68904114 0.45417318 0.09356003 -0.51070774
0000c0 69 9c a8 bf 83 76 3e bd fa ff 11 40 23 79 45 3e
       -1.3172733 -0.04649974 2.2812486 0.19284491
0000d0 7d c6 ff 3d db 7f 2c 3e b2 54 61 3a 1d a5 91 3d
       0.124890305 0.16845648 0.00085956894 0.07111571
0000e0 42 fa a4 3e 41 8b da be 51 43 35 be 96 87 d3 3d
       0.32222182 -0.42684367 -0.1770146 0.10328595
0000f0 09 f9 c4 be b4 c7 a8 be 89 d4 c3 3e c7 c4 33 3f
       -0.3847125 -0.3296486 0.3824809 0.70222133
000100 97 4b 8e bd 8e 4a 92 be 9b a9 ca 3e 9f 30 a2 bc
       -0.06948011 -0.28572506 0.39582524 -0.019798575
000110 f7 bd f0 ba cc cd 2c bf b5 b6 40 be 22 2f b4 be
       -0.0018367161 -0.6750152 -0.18819697 -0.3519221
000120 9a 3e 27 bf 75 4c 13 bf 60 b0 d7 be e6 57 d5 3d
       -0.653299 -0.5753854 -0.4212675 0.10417156
000130 fa 65 d0 bd bc 29 41 3e 55 83 ba bd c2 34 fb be
       -0.101757005 0.18863577 -0.09107081 -0.4906369
000140 9a c8 f7 3c 47 e3 a2 3e 43 ab e7 3d d0 45 94 3e
       0.030247021 0.31814024 0.113119625 0.28959513
000150 18 cb b8 3e b7 d5 ea 3e 18 ba 7f 3f 06 44 6e bd
       0.36092448 0.45866176 0.9989333 -0.05817034
000160 46 0a 98 bd 28 59 91 3f ee e6 da be 99 d6 a3 3e
       -0.074238345 1.1355333 -0.4275431 0.31999663
000170 a1 7f 30 3f 36 a6 76 3e ea 30 69 3e 7c a3 bc be
       0.68944746 0.24086842 0.22772565 -0.3684348
000180 ce e7 ff bd 8a 04 a6 bd ef 76 07 3f c1 df 3a bf
       -0.12495385 -0.081063345 0.52915853 -0.7299767
000190 ab fe 8e be 42 48 f8 3e e1 16 3e 3f b4 d1 d4 3d
       -0.2792867 0.48492628 0.7425366 0.1039156
0001a0 57 39 2c bf 59 eb a8 be 2b a0 4a bd 44 c7 0c bc
       -0.67274994 -0.32992056 -0.049469154 -0.0085924305
0001b0 ea c1 46 3f a4 70 8f 3d 6b a6 63 3d a5 98 d8 3e
       0.7763964 0.07003906 0.05557863 0.4230396
0001c0 50 88 93 3e 14 4f dd bd de 59 31 3f fb 53 6f be
       0.28814936 -0.108060986 0.6927775 -0.2337188
0001d0 9f f0 05 3e 19 7a 17 3e 0f ac 54 be 7d 7c 21 3f
       0.13080071 0.1479267 -0.2076876 0.6308058
0001e0 27 9f ad 3e ee 1e ab be 56 a8 89 bf 06 07 b4 3e
       0.33910486 -0.33422035 -1.0754497 0.35161608
0001f0 1f 56 67 3e c8 74 50 be f9 96 4a bd 48 93 ef bd
       0.22591446 -0.20357049 -0.049460385 -0.116980135
000200 12 f0 3f 3d a6 4c 87 3e 96 55 2b bf 5b 4d 62 be
       0.04685981 0.26425666 -0.6692747 -0.22099821
000210 ba 76 2a 3f c1 57 e9 3c 17 d6 77 be b6 72 19 3e
       0.6658741 0.028484227 -0.24202763 0.14985165
000220 e2 dd 93 3e ca 0e 30 bf 27 dd e1 3e 0b 0d a1 be
       0.2888022 -0.68772566 0.44114038 -0.31455263
000230 dd 3b a5 be 7b 6e e3 3e fc 86 27 3c b2 c3 74 be
       -0.32272235 0.44420227 0.010225054 -0.23902777
000240 bc 84 79 3e 1d 63 75 bd 15 25 1e be 40 96 c6 bd
       0.2436704 -0.059908975 -0.15443833 -0.09696627
000250 d3 b9 aa be 5e e5 09 bf b2 bd c5 be bf 73 26 3d
       -0.33344898 -0.5386561 -0.3862129 0.040637728
000260 0e 91 f3 3e 1b 23 ce be 9c c7 35 3d ae c3 24 bf
       0.47571605 -0.40261158 0.044379815 -0.64361084
000270 27 b0 2d 3e 2c 34 14 3f 34 96 b6 3e a7 94 e1 3e
       0.16961728 0.5789211 0.3566147 0.44058725
000280 88 cf ec 3e c9 55 a8 be 6a 12 12 3e 80 04 ff bd
       0.46252084 -0.3287795 0.14264837 -0.1245203
000290 31 79 27 bf e6 6a db 3d e1 95 1f 3e 38 bf 59 be
       -0.654193 0.10713749 0.15584518 -0.2126435
0002a0 32 4d 80 3f ec a4 e6 be 3a 2f c8 3f 6b 4f ef 3c
       1.0023558 -0.450477 1.5639412 0.029212674
0002b0 15 ec f2 3e 4b 1e 4f 3f c5 6a a9 be 56 3f 67 3e
       0.4744574 0.809056 -0.3308927 0.22582754
0002c0 59 fb 34 3f e8 d2 56 be af 02 95 be f1 a0 8c be
       0.70696026 -0.20978892 -0.2910361 -0.2746654
0002d0 8b fc 97 be 25 9c 93 bd 5e 8c 04 3f 7a 10 a0 3d
       -0.29684862 -0.072075166 0.51776683 0.07815643
0002e0 47 e9 6f be ec 4d c2 be 9c 7f 73 be e5 d6 8b 3e
       -0.23428832 -0.37950075 -0.23779148 0.2731239
0002f0 94 28 8c be 7c b1 35 be 95 20 1a bf 0d 32 32 bf
       -0.2737471 -0.17743486 -0.60205966 -0.6960762
000300 36 70 d2 be f4 25 b8 be af 95 65 3f d9 4f 24 3e
       -0.41101235 -0.35966456 0.89681524 0.16046084
000310 02 b2 b2 be 1b 4c de 3e 98 a5 b6 3d 3f 85 25 bf
       -0.34901434 0.4341744 0.08918303 -0.6465644
000320 bc 77 37 3d bf d4 f1 3d 17 43 0c be 6e 65 23 bf
       0.044791922 0.11808156 -0.13697468 -0.63826644
000330 27 6e 14 be 04 11 35 bd 69 46 e1 3e 90 cc ae be
       -0.14495145 -0.04420568 0.4399903 -0.34140444
000340 30 14 9f be e4 d8 02 bf 57 87 ac 3d 0b 9b fd 3c
       -0.3107009 -0.511122 0.084242515 0.03095772
000350 a4 4b f6 3e 1d b3 a0 be e4 30 0a be ab 41 27 3f
       0.48104584 -0.31386653 -0.13495213 0.65334576
000360 3b 2c a2 3c cc 87 2e bd db 1e e6 be 15 7c 59 be
       0.019796481 -0.042609975 -0.44945416 -0.2123874
000370 93 a5 ba 3d 84 50 44 bf c3 ae 54 3e 6f fa 61 3d
       0.09113612 -0.7668536 0.20769791 0.055170473
000380 f0 64 d1 be 6a 8d b0 be 63 5e ac be ed 70 64 bf
       -0.40897322 -0.3448289 -0.3366576 -0.8923481
000390 dd 14 97 3f 12 6b 02 3d 2a b4 a7 bf 5e bf 15 3c
       1.1803242 0.03184039 -1.3101857 0.009139864
0003a0 09 c7 31 3e e7 60 92 be 91 6e 28 3d 62 c4 79 bc
       0.17361082 -0.28589556 0.04112107 -0.015244575
0003b0 dd 70 19 3e d2 86 31 3c 69 9a 8e be 0c c5 8e 3e
       0.1498446 0.010835366 -0.2785218 0.2788471
0003c0 ca 26 e5 3e 4c 36 85 bd 08 7a 00 be 04 66 3e bf
       0.44756156 -0.06504497 -0.12546551 -0.74374413
0003d0 ed 4e 49 3d 7b b6 3a bd 65 99 a1 be c3 82 5e 3e
       0.049147535 -0.045584183 -0.31562343 0.21729569
0003e0 97 89 30 bf de 93 83 3f c9 ea 9c 3e 54 6a 8e be
       -0.68959945 1.02795 0.30647877 -0.27815497
0003f0 d0 ef 92 3e b4 13 41 3e f9 85 81 3e 86 85 f5 bd
       0.28698587 0.18855172 0.25297526 -0.11988358

LSTM.weight_hh_l0 f4 [720, 180]
000000 6c 44 2d 3f d0 31 ef 3c bf e0 47 3f 3c 7d bd bc
       0.6768253 0.029198557 0.7807731 -0.023131005
000010 e3 47 14 3f fb 1d 83 3e 33 ae 50 bd b8 85 e2 3c
       0.5792219 0.2560881 -0.05094738 0.027651653
000020 20 67 79 3e 75 e1 10 3e 3b ac de 3d 86 49 92 3e
       0.24355745 0.14148505 0.10872694 0.2857172
000030 31 2a 77 3d 6e 84 b6 3e ba d7 d7 3e ef b9 df 3d
       0.06034297 0.3564791 0.42156774 0.10924136
000040 2c cb c8 be c2 c2 0d 3d 70 ff aa 3e ab f7 87 be
       -0.39217508 0.034609564 0.33398008 -0.26556143
000050 b4 6e 99 3e b7 94 f6 3e 0b b5 c9 3d 7b d1 8d 3d
       0.29967272 0.48160335 0.09848984 0.06924721
000060 60 1d 87 bd 18 d4 bd be a4 10 a6 3e f5 01 76 bd
       -0.065974 -0.37075877 0.3243457 -0.06006046
000070 26 b1 3c bc 41 43 b6 be 64 e6 3d 3e eb c5 70 3e
       -0.011516845 -0.35598186 0.18544918 0.23513
000080 ba 67 40 3e 50 46 32 3e d6 88 8b 3e 23 69 51 bd
       0.18789569 0.17409635 0.27252835 -0.051125657
000090 0d e2 36 3c ce b6 a1 bd e9 ba 6f 3e c6 52 ad bd
       0.011162293 -0.07896195 0.23411144 -0.084630534
0000a0 e8 61 e7 3d ef b8 9c be 48 9b 4d 3e bf 2e 20 3f
       0.11297971 -0.30609843 0.20078766 0.6257133
0000b0 f8 eb 17 3e f3 3c f5 3c ee dc b3 be 53 f2 ce 3c
       0.14836109 0.02993629 -0.35129493 0.025262034
0000c0 a3 16 a3 3d 5d 53 b1 3d 40 d3 46 bd e3 e3 19 3e
       0.07963302 0.086584784 -0.048541307 0.15028338
0000d0 2d 50 9f 3e 51 3c a6 3e 5f ff 85 3d 31 13 df be
       0.31115857 0.32467893 0.06542849 -0.4356933
0000e0 b1 9b c7 bd 4d fd 56 3b af 2b 35 be 10 88 e3 be
       -0.09746493 0.0032804788 -0.17692445 -0.44439745
0000f0 2c 74 92 bd 8e 7d 6b be 50 4d 37 3d b3 f5 0f 3f
       -0.07151064 -0.22997114 0.044751465 0.5623428
000100 dc bc 3c 3d 74 eb 42 3f 41 fc 84 bd 3c 78 ca 3e
       0.046078548 0.7614052 -0.06493426 0.39544857
000110 fb 3c 7e be 97 e8 8c 3e 7f e7 09 bf 16 bf 41 3b
       -0.2482795 0.27521202 -0.5386886 0.002956336
000120 a6 42 42 bf ed b9 41 be ad e9 2a be c8 dd bc 3d
       -0.7588295 -0.18918581 -0.16690703 0.09221989
000130 78 43 d3 3e 8c 54 7a 3c 9f 83 05 3d 42 58 08 bd
       0.41262412 0.015278947 0.032596227 -0.033287294
000140 f6 c2 79 be e9 74 e0 be 6f 14 0e 3f 3d b0 11 be
       -0.24390778 -0.43839195 0.5549993 -0.14227386
000150 b5 70 58 3e 8b 86 0c 3f f3 58 5a 3c 6d d1 f4 3e
       0.21136744 0.54892796 0.013326871 0.4781603
000160 fd be 1f be 4b 52 19 3e 3c 17 79 3e af 89 d8 be
       -0.156002 0.14972799 0.2432527 -0.42292544
000170 89 30 07 bf 80 ac a3 3c 62 32 a7 3e a6 0e 64 be
       -0.52808434 0.019979715 0.32655627 -0.22271213
000180 3a ce 85 be 34 24 7f bd 6f 5e 83 be f7 d2 ac be
       -0.261339 -0.062290385 -0.25657985 -0.33754703
000190 23 5e 2e be b6 f0 77 3e dc a2 a9 3b 2f 94 4f be
       -0.17028098 0.24212918 0.005176885 -0.20271371
0001a0 5d 3b 81 bd d0 95 b8 bd f1 82 07 bf 4b 67 37 bf
       -0.06310151 -0.090129495 -0.52934176 -0.7164199
0001b0 3d 78 93 3d 31 5f 9c 3e 78 6e 0d 3c d7 48 c4 3d
       0.07200668 0.30541375 0.008632295 0.095842056
0001c0 71 1b dc bd f2 70 53 3e b7 6f ec bd 9a 2a ac bd
       -0.107474215 0.20648554 -0.115447454 -0.08406563
0001d0 eb 8e 0d 3f da c8 e3 3e 86 7a 0c 3f a4 82 7b 3e
       0.552962 0.44489175 0.54874456 0.24561554
0001e0 94 e8 8a be 0a df 2b 3e 8d 73 82 3d c3 4c 07 bf
       -0.27130568 0.16784301 0.06369696 -0.52851504
0001f0 72 d4 f6 bd 51 20 37 be 0e 6c aa bd bb 63 fa 3e
       -0.120522395 -0.17883421 -0.08321391 0.48904213
000200 6b 16 f1 bd 4e b9 9c 3e 89 71 8c be c9 5b 10 be
       -0.11771854 0.30610126 -0.2743037 -0.14097513
000210 4f ba 09 3e 3f 72 f5 bd 22 66 6d be bb 9a d3 3c
       0.13449977 -0.11984681 -0.23183492 0.025830617
000220 2c e1 15 3f d0 d9 f2 3c 7e 8f ba 3b c6 29 23 3d
       0.5854671 0.029644877 0.005693375 0.03983476
000230 d2 9f ae 39 d7 b2 be be e0 bf a4 be 05 88 79 3e
       0.00033306942 -0.3724582 -0.3217764 0.24368294
000240 78 fd c0 be 59 46 3e 3e bb 4a 09 bf f3 d9 39 3e
       -0.3769338 0.18581523 -0.53629655 0.18149547
000250 14 77 c9 3e 60 97 96 3d dd 47 b4 bd 3a 10 9d 3d
       0.39348662 0.07353091 -0.08802769 0.076691106
000260 d3 a3 78 bd c2 84 16 bd 79 1d ab 3e 6a e1 84 be
       -0.06070311 -0.0367477 0.33420923 -0.25953227
000270 79 45 9c 3e 0c 9c 4a 3d 64 08 f7 3b c4 b3 6f bd
       0.30521753 0.049465224 0.007538842 -0.058521047
000280 dc a2 45 3d 22 d1 e1 be 10 00 88 3e 0b fd d5 bd
       0.048251018 -0.44104868 0.26562548 -0.10448655
000290 2a d6 6e be 4c c9 0f 3f a8 ac a8 be d3 8c 89 be
       -0.23323885 0.5616653 -0.32944226 -0.26865253
0002a0 69 ec 68 3d 98 bd 2b 3d fd 79 d1 be a2 04 9d bd
       0.056866083 0.041928858 -0.40913382 -0.07666899
0002b0 57 81 30 bf 1b 33 ba be 1a 51 3b bd 5e d2 8e be
       -0.68947357 -0.36367115 -0.04573164 -0.27894872
0002c0 aa 96 82 be 9b 95 23 bf 55 64 9c bd 45 98 27 3f
       -0.25505573 -0.63900155 -0.07636324 0.6546672
0002d0 f9 79 a6 3d 00 c9 5b 3c 1d a1 aa bc 5f 2e b8 3e
       0.08128733 0.013414621 -0.020828778 0.35972878
0002e0 52 aa f1 bd 9e 40 44 3b c4 f4 b5 3e 94 9a 71 be
       -0.11800064 0.0029945741 0.35538304 -0.23594123
0002f0 5e d4 0c bf 65 7c 8b 3e ad c5 c2 3c 38 ec 06 be
       -0.55011547 0.27243343 0.0237759 -0.13176048
000300 05 bb 82 3e 64 af a0 3c a2 91 c6 3e 6d 14 ba bd
       0.2553331 0.019614883 0.38782984 -0.09085927
000310 98 61 3b bc 01 25 e1 3e 37 02 a6 3e e8 a8 33 be
       -0.011436842 0.43973544 0.32423565 -0.17544901
000320 11 1e 8c be 50 79 61 be 7e 00 40 bd 32 df 7d 3e
       -0.2736669 -0.22018933 -0.04687547 0.24792174
000330 ba bb 22 3e 8b 07 93 3e ee 13 3d be 9f 5d 7b be
       0.15891925 0.28716692 -0.18464634 -0.24547432
000340 ed bc 70 3e db 07 e8 bd 47 53 2b bf dd b6 2e 3e
       0.2350957 -0.11329623 -0.66923946 0.17061944
000350 2b 80 08 be c6 79 bf 3e e2 df 2c bf 8c 7e 6a be
       -0.13330142 0.37397593 -0.6752912 -0.22899836
000360 1c cc b3 be 94 4a be 3e ad 65 7c 3e aa 00 91 3e
       -0.3511666 0.37166274 0.24648161 0.2832082
000370 0c 01 b4 bd 4b 60 11 3f 13 13 4c bc d1 25 e0 3c
       -0.08789262 0.56787556 -0.0124557195 0.027361782
000380 59 84 9a 3d 61 9a 49 3e ef 3f 22 be 63 a5 2e 3e
       0.075447746 0.19687797 -0.15844701 0.17055278
000390 d1 a3 9d 3e 81 6c 3d bd 5b f7 90 bd 5e de 6c be
       0.30789044 -0.046246056 -0.07078429 -0.23131701
0003a0 0c ae 40 3e d4 2c 2e 3c de c0 5d 3e 41 92 56 bd
       0.18816394 0.010630805 0.21655604 -0.052385572
0003b0 5c d4 91 be 4a c2 ce 3d 5b 7f 4c be b2 8c ce 3d
       -0.2848233 0.100956514 -0.19970457 0.10085429
0003c0 ef a8 ee 3d 04 c3 3d be 47 f1 2b be 90 43 c0 3d
       0.11653315 -0.18531424 -0.16791259 0.093878865
0003d0 7c 29 94 be 21 70 69 3e 32 36 39 3e 85 7a 18 3e
       -0.289379 0.2279668 0.1808708 0.14890487
0003e0 25 06 2b bd 39 3f f8 3d 59 e2 82 be e8 ca f6 bc
       -0.041753907 0.12121434 -0.25563315 -0.03012605
0003f0 ff d2 28 3e 3d ac 62 3d a2 50 38 3e 03 0d f2 be
       0.16486739 0.05534004 0.17999509 -0.47275552

LSTM.bias_ih_l0 f4 [720]
000000 3a 60 1c 40 5d 6a f1 be 73 2e 3a bc 9d d2 fd bb
       2.4433732 -0.4715146 -0.011363613 -0.0077460543
000010 9d 17 54 3f 94 f9 a4 bf 3b e6 4a 3d 96 bf 6f bf
       0.8284853 -1.2888665 0.04953597 -0.9365171
000020 fe 04 a7 3f c9 8a 15 be e2 1f 0c 3f ca fd 0b bf
       1.3048398 -0.14603724 0.5473615 -0.54684126
000030 0e c5 e0 be 2f 8a 8b 3f 3e c6 16 bf 13 52 99 bf
       -0.4390034 1.0901545 -0.58896244 -1.1978172
000040 06 91 bb 3e f1 d2 31 bf 45 f1 fc 3e 0b 4e ae be
       0.36634082 -0.69462496 0.49402824 -0.34043917
000050 41 6a 73 bf 8b fd 84 bf eb 4c 4e bf e8 20 68 3f
       -0.95084006 -1.0389875 -0.8058612 0.9067521
000060 c2 4f 93 be dc 3a 13 c0 7f a3 0d c0 f0 60 39 3f
       -0.28771788 -2.3004675 -2.213104 0.7241354
000070 44 59 ab 3f 62 18 86 3f cc c2 02 c0 b2 53 28 bf
       1.3386617 1.0476191 -2.0431395 -0.6575271
000080 70 9a 53 be 40 37 52 bf 3c f2 84 bf 2b 3d 14 3f
       -0.20664382 -0.82115555 -1.0386424 0.57905835
000090 42 85 a2 be 5b e7 a1 bf 21 89 41 c0 0a 8d bb be
       -0.31742293 -1.2648729 -3.0239947 -0.36631042
0000a0 5a 0c 65 3e c0 60 8d bf 2e fd d6 3f 4a 7c 11 bf
       0.22367993 -1.1045151 1.6796014 -0.56830275
0000b0 e2 a1 36 bf fd 23 ab bf be 99 89 bf 53 a3 a5 3e
       -0.71340764 -1.3370358 -1.0750043 0.3235117
0000c0 db 33 7a 3f 13 11 65 bf 61 97 de 3d 08 1d d7 3f
       0.97735375 -0.8947918 0.10868717 1.6805735
0000d0 d4 de 45 3f 04 33 f9 3d 38 e1 97 3f e4 d7 0f c0
       0.77293134 0.121679336 1.1865606 -2.247552
0000e0 73 6c 9e 3f 28 b0 e8 3e 0a 96 e1 3f d6 c1 3b 3f
       1.2376846 0.45446897 1.7623913 0.73342645
0000f0 41 c2 a0 3e cb fb 80 3f e9 11 2b 3f 62 1f 09 bf
       0.31398204 1.0076841 0.66824204 -0.5356351
000100 84 c5 93 3d a7 13 4e bf a6 3f 43 3f 0d 8e 6a 3f
       0.072154075 -0.8049874 0.76268995 0.91623
000110 26 4e 66 bf 68 74 a8 3d 52 d0 80 3e 00 e5 c3 bf
       -0.89962995 0.08225328 0.25158936 -1.530426
000120 00 e9 2d c0 16 4b 61 3f 7d 8a cf bf 50 b2 94 3e
       -2.7173462 0.880052 -1.6214138 0.29042292
000130 e6 26 57 be ef c6 8b bf 5a bf 06 3f 4a 17 9e bf
       -0.21010932 -1.0920085 0.5263573 -1.2350857
000140 dc ec 78 be 92 31 72 3f cb d4 03 bf 08 b6 5a be
       -0.24309105 0.9460689 -0.5149657 -0.21358502
000150 b6 00 ef 3e 8b 15 1d bf fa 38 75 3e cb 1e c3 3f
       0.4668023 -0.61360997 0.23947516 1.5243772
000160 c6 88 a1 be 14 b9 d1 bf 0d f6 19 c0 c3 74 d6 be
       -0.31549662 -1.6384606 -2.4056427 -0.41885957
000170 fa cf 99 3d 9d bd b9 3d 1d a0 af 3f e3 78 1a 40
       0.075103715 0.09069369 1.3720738 2.4136283
000180 c1 fb 50 3f 84 ca c8 3f 31 cf 1a 3f 04 f2 cc be
       0.81634146 1.5686803 0.604724 -0.40028393
000190 4d 0e 39 3e 2f 6c 96 3e a6 bc 30 3e 5e 61 34 3f
       0.18071862 0.29379413 0.17259464 0.7046107
0001a0 60 c9 04 3f 36 bd 0b 3f 1e a1 14 3f 43 5c 32 bf
       0.51869774 0.5458559 0.58058345 -0.6967203
0001b0 16 4d ee 3f 43 7e c3 3c 70 93 f4 3d 8d 96 e8 3f
       1.8617275 0.023863917 0.11942184 1.8170944
0001c0 06 24 54 3f 88 c1 66 be 6a ba b9 be 9d 24 4b 3f
       0.8286747 -0.22534764 -0.36275035 0.7935274
0001d0 1d 9d 8a 3f c0 b4 07 3f fb fd 97 bf 9a 17 24 bf
       1.0829197 0.5301018 -1.1874384 -0.64098513
0001e0 56 19 ec be 3a e2 3b bf c1 86 84 3f 5c 74 01 3f
       -0.4611308 -0.7339207 1.0353624 0.50568175
0001f0 ea 90 8c bf bb 7d 4a 3e 7b 6d 17 40 7b 7c d0 3f
       -1.0981724 0.19774525 2.3660572 1.6287988
000200 16 a1 85 bf 94 a2 70 3e 6a 41 49 3f a6 9c 0f 3f
       -1.0439785 0.23499519 0.7861544 0.560984
000210 a8 a5 81 3f 2f 72 6b bf 18 cd 69 be e0 36 c5 3f
       1.0128679 -0.91971105 -0.22832143 1.5407372
000220 e9 87 b1 bf e2 be 79 bc b7 dd b4 3f b3 b5 1d bf
       -1.3869601 -0.015243264 1.4130162 -0.61605376
000230 10 d4 3a 3f a0 94 18 c0 6f 39 8a be 2e 5d 33 c0
       0.7297983 -2.3840714 -0.26996943 -2.8025622
000240 49 48 d4 3f b7 e0 37 3f 84 e1 de 3f 80 69 11 bf
       1.658456 0.7182726 1.7412572 -0.56801605
000250 13 63 40 3e 5f 49 fe be 18 2b ac bf 33 97 83 bf
       0.18787794 -0.49665353 -1.3450651 -1.0280517
000260 25 eb 04 bf 53 99 b0 3e d2 80 f9 bf 9c 08 75 bf
       -0.519213 0.34491977 -1.9492438 -0.9571626
000270 4e 17 08 c0 73 60 64 bf 9a 8d 96 3f 5a 3b 1c 3f
       -2.1264224 -0.8920967 1.1761963 0.61028063
000280 cf 11 b5 3d 51 04 de be 40 5e 12 3f 5e 2a 2b be
       0.08841287 -0.43362668 0.57175064 -0.1671538
000290 86 eb 4e 3e ce 63 97 3e 59 37 bb bf 4b ec 78 3e
       0.20207033 0.29568332 -1.4626266 0.24308889
0002a0 15 c1 59 3f e9 36 80 3e 50 61 cd be 5a 33 8d 3d
       0.85060245 0.25041893 -0.40113306 0.0689456
0002b0 07 de 70 3f 4b c6 6d 3f b4 95 7c 3f 68 d9 2f c0
       0.94088787 0.92880696 0.9866593 -2.7476444
0002c0 7a 91 d3 be 6a 62 64 bf 9c e3 8d bd 6b 4a 89 bd
       -0.41321927 -0.8921267 -0.06928179 -0.06703647
0002d0 c8 64 8e bf 95 f4 92 3e cf 8a 4e 3f 43 95 9a 3f
       -1.1124506 0.28702226 0.80680555 1.2076801
0002e0 53 21 ed bf 31 be 52 be 88 25 72 bf 20 64 d2 3e
       -1.8525795 -0.20580365 -0.9458852 0.41092014
0002f0 70 6d 63 3f 35 ee 96 bf f4 3e 4d 3d bf bf b0 bf
       0.88838863 -1.1791445 0.050108865 -1.3808516
000300 0d fd a7 bf e3 e0 eb 3f ec 42 3f 3f a0 fa 72 bf
       -1.31241 1.8428005 0.7471149 -0.94913673
000310 69 7b 14 c0 07 b2 d2 3f 0e 00 c5 3f 02 f5 8f bf
       -2.3200324 1.646058 1.5390642 -1.1246645
000320 00 d0 ff be 3c b3 3e bf 0e 3b c3 3e 34 71 83 3f
       -0.4996338 -0.7449224 0.38130993 1.0268922
000330 71 6f 9c 3f cd 89 bb 3f 57 f3 85 bf ba cd 83 bd
       1.2221509 1.4651428 -1.0464886 -0.064357236
000340 7c 4f df be cd 0a cb 3e 94 73 c6 3f 16 8d e3 bd
       -0.4361533 0.39656678 1.5504022 -0.111108944
000350 ad bc 72 3f de 8d 2b 40 11 53 c0 3f 25 03 45 3f
       0.94819146 2.680534 1.502535 0.76957923
000360 d4 d8 a2 bf 87 d4 cf be 14 1c a0 3e a4 56 11 3e
       -1.2722421 -0.40591833 0.31271422 0.14193207
000370 1b e8 10 3f 29 d7 86 be 18 72 ac bf f6 73 95 3e
       0.56604165 -0.2633603 -1.3472319 0.29190034
000380 18 b3 c2 3f c4 e7 aa be da 92 f3 bf c6 18 09 3f
       1.5210905 -0.33379948 -1.902919 0.53553426
000390 62 cd 40 be b7 06 a8 bd 4c 56 06 3f c2 58 13 3f
       -0.18828347 -0.08204406 0.5247543 0.5755731
0003a0 82 00 9d 3d 10 e4 89 be 9c 76 56 bf 98 32 99 3f
       0.076661125 -0.2693181 -0.83774734 1.1968565
0003b0 fd dc 1f 3e 2f ea 01 3f 63 f2 ae bf 24 7c 9a 3d
       0.15611644 0.5074796 -1.366772 0.07543209
0003c0 39 ba 46 3e 68 bc 56 bf a0 f4 95 3e a9 6e 40 bf
       0.19406976 -0.83881235 0.29288197 -0.75168854
0003d0 17 9b 14 3d 3b 83 97 bf 37 67 5f bf 4c bc 85 be
       0.036280718 -1.1836923 -0.8726687 -0.26120222
0003e0 83 98 02 3e c0 52 cb bf 53 1f 49 3f 62 8a db bd
       0.12753491 -1.5884628 0.7856342 -0.10719754
0003f0 ed 1b 6b 3f 83 14 17 3f 19 56 1f 3e a5 8e dc 3f
       0.91839486 0.59015673 0.15560187 1.7231032

LSTM.bias_hh_l0 f4 [720]
000000 c9 b9 7b bf c3 3c a9 be 31 37 e3 be 48 4a 46 bf
       -0.9833036 -0.3305417 -0.44378045 -0.77457094
000010 a2 07 9c 3d a3 61 78 3f 18 bc 7a bf 3a e2 4b c0
       0.07618643 0.9702398 -0.9794326 -3.1856828
000020 62 ec f7 be bc 46 e1 3e b1 27 39 c0 d6 ac a8 bf
       -0.48422533 0.4399928 -2.8930476 -1.3177745
000030 c8 52 99 3e 4e 02 2f bf a3 ab 08 bf d3 96 34 3f
       0.2994597 -0.6836289 -0.53386897 0.7054264
000040 56 16 a8 bf c5 b9 32 bf 6c 0b 89 bf ba 3e 40 3f
       -1.3131816 -0.6981471 -1.0706611 0.75095713
000050 a5 8c 50 be d2 89 97 3e d3 6a 6f bf ea c2 be be
       -0.20366152 0.29597336 -0.93522376 -0.37258083
000060 17 66 3a bf cd cd af bf 8d 9d e9 bf af 39 1d 3f
       -0.72812027 -1.373468 -1.8251206 0.61416143
000070 b3 a6 9b 3e 5b 53 45 bb 74 48 80 3f 13 b3 02 c0
       0.3040062 -0.0030109498 1.0022111 -2.0421798
000080 38 1b b5 be 3b 45 eb 3e fa 7b fb be 09 1e 4f bf
       -0.3537233 0.45951256 -0.49118024 -0.80905205
000090 96 1a 69 be 4a 54 76 3f 05 d6 2a bf 48 ad 96 bf
       -0.22764048 0.96222365 -0.6673282 -1.1771631
0000a0 3b eb c5 bf ed 45 33 bf a5 40 90 3f 10 4f a1 bf
       -1.5462412 -0.70028573 1.1269728 -1.2602253
0000b0 97 53 46 bf 72 74 08 bf d2 19 12 bf 65 07 fb 3d
       -0.774713 -0.5330268 -0.5707065 0.1225727
0000c0 6a e8 91 3f 49 08 8b 3f dc 31 84 3f c1 42 97 3e
       1.1399052 1.0861903 1.0327716 0.29543117
0000d0 24 d8 00 3d 34 c4 87 be ba 4b 1e 40 e5 2c 01 bf
       0.031456128 -0.2651688 2.473372 -0.5045913
0000e0 f4 f3 53 3f 31 c9 92 bf 35 ca 78 3e 71 ac a8 be
       0.8279412 -1.1467649 0.24295886 -0.32944062
0000f0 cd 2b c9 3f d1 b9 aa bf 95 fa 31 c0 0b c7 1f 3f
       1.5716492 -1.3337957 -2.7809193 0.6241309
000100 cd b1 b3 be 85 0f 03 c0 a4 7b df bd af 93 57 3e
       -0.3509659 -2.0478222 -0.109122545 0.2105243
000110 44 5d 27 3f 60 57 cb 3e d7 b1 9d 3f 05 f5 96 3f
       0.6537669 0.397151 1.2319897 1.1793524
000120 1c 27 99 be 19 3f 38 bf 2f 56 6f be c5 0b 42 bf
       -0.2991265 -0.7197128 -0.2337272 -0.7579921
000130 81 45 83 bf c3 86 90 bf 87 b6 0a c0 d1 4a c4 be
       -1.0255586 -1.1291126 -2.1673906 -0.3833833
000140 a6 08 de bf 43 0e 9b 3e c8 27 79 bf c9 c3 d5 be
       -1.7346389 0.30284318 -0.97326326 -0.41750935
000150 55 0f 75 3e 71 62 a9 3e 3d 5f c7 bf e6 32 bf be
       0.2393163 0.33082917 -1.557594 -0.3734352
000160 95 ea cc be 66 17 3b bf e2 b9 0a 3f 88 0a 90 3f
       -0.40022722 -0.7308258 0.54189885 1.1253214
000170 ea ab a4 be 7d 71 03 3d c5 98 dd 3f c6 13 00 40
       -0.3216241 0.032090653 1.7312247 2.0012069
000180 3f f9 32 c0 65 90 09 3f 1e fe ef 3e 1c 76 bb bf
       -2.7964628 0.53735954 0.46873564 -1.4645419
000190 4f 86 e0 bf 9b 92 5f bf b3 54 58 3f 61 e1 c4 3e
       -1.7540988 -0.8733308 0.8450424 0.384532
0001a0 1a 03 a7 bf 29 90 96 3f c5 af fd bd c0 31 78 bf
       -1.3047822 1.1762744 -0.12387041 -0.9695091
0001b0 1c cf 40 bf 4c 50 9c bf eb 35 66 3f 66 7f 80 be
       -0.75316024 -1.2212005 0.8992602 -0.25097197
0001c0 bc 60 9a bc f5 93 49 3f 3d d3 89 be 05 10 94 3f
       -0.018844955 0.7874139 -0.26918975 1.1567389
0001d0 9b a8 8b be 5d 2b 26 be 71 f0 3e 3c 09 1e c0 3f
       -0.27277073 -0.1622748 0.011654005 1.5009166
0001e0 fd ec 87 3f a4 b2 95 bf 57 a2 72 be 9d 6a 99 3f
       1.0619198 -1.1695142 -0.2369474 1.1985661
0001f0 a5 da b4 3e 60 8a bd 3e 12 82 21 bf 40 87 31 be
       0.35323063 0.37019634 -0.63089097 -0.1733675
000200 34 ae 84 be b5 31 fd be 8b f7 32 bf 5e 63 bc bf
       -0.25914156 -0.49451986 -0.6990897 -1.4717824
000210 99 49 89 3f e6 26 a8 3f 6c b7 01 be d6 98 a4 3f
       1.0725585 1.3136871 -0.12667626 1.2859142
000220 27 d9 ed 3f 73 6a 2c 3e e2 0e 9b 3f 71 5e aa 3f
       1.8581895 0.16837482 1.2113917 1.3310071
000230 ad a3 0b 3f 05 8b 46 3f 29 97 34 be cc 31 3f bf
       0.54546624 0.77555877 -0.17635788 -0.7468536
000240 91 d1 b6 3f 14 8c d6 3d af 49 11 3e 38 e1 1a bf
       1.4282705 0.104759365 0.14188264 -0.60499907
000250 ab ea bd be 0d 56 60 3f ae 45 8c bf e0 c4 12 40
       -0.370931 0.87631303 -1.0958765 2.2932663
000260 8c 6d 0b bf 8e c3 14 3f eb 46 94 3f 4d 9a 55 3e
       -0.5446403 0.5811089 1.1584142 0.20859642
000270 06 e0 bd bf 70 8e 71 3f d1 49 b8 bf 6a 41 c5 be
       -1.4833992 0.9435797 -1.4397527 -0.3852647
000280 c1 73 51 be 46 7b 4a 3f ff 63 86 bf f7 36 87 bf
       -0.20454313 0.7909435 -1.0499266 -1.0563649
000290 c0 9a 82 bf e3 e6 b6 bf cb 54 75 3f 2e e1 26 bf
       -1.0203476 -1.4289211 0.9583251 -0.65187347
0002a0 a2 44 3b bf 74 e5 35 3e ac 4b 51 bf ba a5 70 3f
       -0.731516 0.1776331 -0.8175609 0.9400288
0002b0 34 59 09 bf 13 fe 7c bf f3 a7 12 c0 d0 57 e2 3e
       -0.5365174 -0.98825186 -2.2915008 0.4420762
0002c0 e7 c0 be be 5f 4e 13 c0 9e 0f db 3f 95 2d 79 be
       -0.37256548 -2.3016584 1.7114141 -0.24333794
0002d0 24 34 7b bf f5 bd 1e 3e 47 ed 92 3f 50 87 89 be
       -0.98126435 0.1550215 1.1478661 -0.26861048
0002e0 af 6d f4 be ec 51 90 bf 71 9d 05 bf 84 91 92 bf
       -0.47739932 -1.1275 -0.5219336 -1.1450658
0002f0 07 ee f0 be ba d8 ae bf cf ec a0 bf a1 57 3c 3f
       -0.470566 -1.365989 -1.2572268 0.7357121
000300 52 2c c5 be 2d 94 72 bc eb 8c 01 3f 4f 7c 5d 3f
       -0.38510376 -0.014805836 0.5060565 0.86517805
000310 65 ae aa bd 8e 00 6d 3f f5 9a b8 3c ff 64 d3 3f
       -0.08334044 0.9257897 0.022534827 1.6515197
000320 66 f7 8e bd 96 a4 49 3c 3c 18 94 bf fa 46 07 bf
       -0.06980781 0.012307307 -1.1569896 -0.52842677
000330 25 0a 68 3f 4b 8f 65 3f bb 4c d7 3e e4 10 7e 3f
       0.9064048 0.8967177 0.42050728 0.99244523
000340 7b 15 a3 be c7 9b 95 3e 84 44 08 3f db d6 a7 3f
       -0.31852326 0.2922041 0.53229547 1.3112444
000350 15 12 78 3f a5 05 87 3f f3 43 d5 3e 00 ad d0 bd
       0.9690259 1.0548598 0.41653404 -0.10189247
000360 1e 7d e2 bf af 19 61 3d bc d5 5c be fa 42 35 3d
       -1.7694433 0.054956134 -0.21565908 0.044253327
000370 69 3e 0a 40 6f 5e db bf 50 8d f4 3f e8 fd 1e 40
       2.1600592 -1.7138194 1.9105625 2.4842472
000380 13 1e 86 bf 68 02 c9 3e 8d 3f 6c 3f 88 1f b6 3e
       -1.0477928 0.39259648 0.9228447 0.3557093
000390 21 8c cb 3f 87 b4 e3 3e ac 7e 20 bf 6f b8 c7 be
       1.5902139 0.4447367 -0.62693286 -0.390079
0003a0 92 2a 63 bf 9f 95 a0 bf a7 80 8c 3f d4 77 df 3f
       -0.8873683 -1.2545661 1.0976762 1.7458444
0003b0 a4 60 95 3f 89 b0 80 3f 2c 5a f7 3f a4 ce a0 3e
       1.1670117 1.0053874 1.9324393 0.31407654
0003c0 f7 18 99 bf f1 20 d7 3f 1c 03 cf bf 3e 98 a7 bf
       -1.1960744 1.6806928 -1.6172824 -1.3093336
0003d0 67 59 14 bf 22 b0 2f 3f 92 f4 85 3f d4 49 93 3e
       -0.5794892 0.6862813 1.0465262 0.28767264
0003e0 33 a6 a0 bf 85 57 bc 3f 31 a5 e9 be ee 73 3b bf
       -1.255072 1.4714209 -0.45633844 -0.7322377
0003f0 35 4a 3c be e8 55 65 be 58 6b 0b 40 4a 02 e0 bf
       -0.18387683 -0.22396052 2.1784267 -1.7500699
