models/helpinghand_encoder.pth (torch, 421048 bytes, 4 tensors)

LSTM.weight_ih_l0 f4 [640, 2]
00000000: a987 8abe bb6b 2fbe 7507 96be 212c 21be
00000010: 8ca2 e3bc 0448 963b 3456 51be 20f7 89be
00000020: deff 82be 4ad4 51be 2d55 973d a4e7 84ba
00000030: eeed 23be 9d45 aabd 1a23 1fbe c9d2 70be
00000040: 7419 273e ac20 173d 6c90 223d 9715 e5bc
00000050: 3515 cebd 1a16 0bbe da9f 35be 2e14 d1bd
00000060: 51e6 fa3a e54c 9fbd 467f f4bd d611 07be
00000070: 198a 39be 338c 4dbe 66c8 053c 9852 ba3d
00000080: 8c47 98be 5f59 32be 2922 92be 5a2d 5cbe
00000090: cc28 2f3e 4fe7 2c3e 9338 d0bd 0681 803b
000000a0: b0a9 93be 809c 0dbe 68ef 0d3e a4be d03d
000000b0: fd83 233e 3b33 2b3e d81b 75be 0d0c 30be
000000c0: 1ec3 13bd 0d9a c7bd 1c1c 0f3e 8424 543e
000000d0: 9be6 d6bd 46d4 90bd 8eb3 8abe a2fe 96be
000000e0: 9b9e 02be 78ba 1e3e 88a5 fa3d 69ca 7d3d
000000f0: f8ed 4f3e 4eff 3f3e 6598 3f3e 90bf 8d3e
00000100: 22ec 51bd 3643 5a3d eed5 d63d cace 923d
00000110: c3bd 1a3d b4e9 dcbd b2ef 57be 7cc0 71be
00000120: ca9f 03bd b7b6 efbd e797 39be e050 f6bd
00000130: 5fa4 723d 2345 ea3c 5bdc 263b a92d 773d
00000140: 196d 9f3c 3aeb b23d 8230 ddbd 5cba 45be
00000150: c7fa 91bc 5699 aebd f447 8f3d ae0e e13d
00000160: 4d19 6c3d 2601 1dbd 33f7 57be 4741 22be
00000170: 2afb 07bd 127b c7bd 6004 3a3e 4684 2b3d
00000180: 16b7 5dbe 1b0f 6fbe 3930 6fbc e27b 83ba
00000190: da71 89be eae7 c5bd 5ee0 323d 8fe6 663d
000001a0: d4f2 87be 9de7 4cbe 764c e4bc 12ce 1ebd
000001b0: a738 023d 23a0 4b3d 7ea5 44be 2f57 18be
000001c0: e48d 9cbe b818 78be b71e 22be 0805 38be
000001d0: 990f 98be 7391 7fbe aa31 94be 74a9 5ebe
000001e0: 54d4 06be 85a9 91bd 933d 5bbe 43a2 eebd
000001f0: b4b9 053e b2e7 48be a32a 76be dea1 43be
00000200: 4f77 55bd 1923 0dbe 7e6c 39bc fd42 2c3c
00000210: 13bd 6cbd 2cfe 0cbc 41bf 95be 3671 1bbc
00000220: dc4c 1bbe ec87 e6bd 5abf 17be 288f e2bd
00000230: 13b9 c13d fc58 943d 03a3 973d 11a8 633c
00000240: 6a8b 543e 217b 233e 0369 1cbe 8e66 87bd
00000250: 5a1c 923e b438 833e 6914 8ebe ff2a 79be
00000260: 6778 5f3d f97b da3d c344 38be 5c7a 813d
00000270: 41e5 4fbe e267 0cbd 73a6 1bbe 365e 4cbe
00000280: 784f f93d 8e89 133e a281 23be 784e d4bd
00000290: 217e 70be 59e3 03be ebce 6bbc 669f 2e3d
000002a0: 052d 3ebe 5a7c 6cbe 64f5 41be b6d8 33be
000002b0: bd77 6b3e 9677 023e fecc 133e 31dd 123d
000002c0: 5555 24be bf7f feba 35ac 783e 0071 683e
000002d0: bbd9 3cbe 17b5 93bd 6122 4ebe afdb 83be
000002e0: c15f e8bd 9287 2bbe b47c a13a 2279 993e
000002f0: 1025 76be 4423 87be 7a10 f6bd cdf2 b3bd
00000300: a91a 233c 88e3 0fbe d133 573d 2d62 833c
00000310: 9329 79be 8646 81be b9a5 cfbd 24aa db3d
00000320: fab9 42be ac3f 57be ce21 a5bc fcf7 cdbc
00000330: 922e 933d 22c4 6ebd 0c19 773e 7385 583e
00000340: dc7e 6cbe b2f8 34be 307a 4dbe f039 b2bd
00000350: 0d2f 013c 3b38 8abd 2f65 68be 8946 86be
00000360: c418 3dbe 0041 e3bd 8f3a 45be c43e e6bd
00000370: 5e22 9dbd 595c 293e b4be c8be 270b abbe
00000380: b65d 06be 9fc4 f5bd f0ee 1abe b06a d1bd
00000390: 90a3 4cbe 8c2e 82be 8a4a 2bbe c2c2 f4bd
000003a0: 22ba 2fbe 7120 1fbe 17d6 3ebe 3c1d 4cbe
000003b0: 0ecc 67be 19ae 7abe 908c 88bd 84cb 143e
000003c0: f489 b7bd 9912 f63b 1ca1 aabc c6c4 573c
000003d0: c617 753d ab31 ae3b eb8b 483e 738c a73d
000003e0: 20ab 683e 74e8 dd3d 2684 82be af7e 62be
000003f0: 2fb3 2bbd 7585 01be c606 853d 3293 403e
-0.27056625 -0.1713094 -0.29302564 -0.1573949 -0.02778747 0.0045862217 -0.2044304 -0.26946354
-0.25585836 -0.20491138 0.07389293 -0.0010139835 -0.16008732 -0.08314059 -0.15540734 -0.23517908
0.16318303 0.036896393 0.039688513 -0.027964396 -0.10062639 -0.1358265 -0.1773676 -0.10208927
0.0019142126 -0.07778338 -0.11938338 -0.13190398 -0.18119086 -0.20073013 0.0081654545 0.09097785
-0.29742086 -0.17416905 -0.28541687 -0.21501675 0.17105407 0.16885112 -0.10167041 0.003921631
-0.288404 -0.13829231 0.13860857 0.10192612 0.15968318 0.16718762 -0.23936403 -0.17192097
-0.03607475 -0.0974618 0.13975567 0.20717055 -0.10493203 -0.07071738 -0.27090114 -0.29491144
-0.12755816 0.1550082 0.12238604 0.06196061 0.20305622 0.18749735 0.18710478 0.27685213
-0.051250584 0.053286754 0.104900226 0.07168348 0.037778627 -0.10786763 -0.2108753 -0.23608583
-0.03213481 -0.11704772 -0.18124352 -0.120271444 0.059238788 0.02859742 0.0025460932 0.06034628
0.019461202 0.08736272 -0.10800268 -0.19309372 -0.017819775 -0.0852534 0.06996146 0.10989128
0.057641316 -0.038331173 -0.21090393 -0.15845214 -0.033198513 -0.09740271 0.18165731 0.041874193
-0.21651873 -0.23345606 -0.0145988995 -0.0010031427 -0.26844674 -0.09663375 0.043671004 0.05637222
-0.2655245 -0.20010228 -0.02786849 -0.038770743 0.03179231 0.049713265 -0.19203755 -0.14877008
-0.30577004 -0.2422818 -0.1583203 -0.1797067 -0.296994 -0.24957828 -0.2894414 -0.21744329
-0.13166934 -0.071124114 -0.21410207 -0.11652043 0.13059121 -0.19619635 -0.24039702 -0.19104716
-0.052115735 -0.1378292 -0.01131737 0.010514018 -0.057797503 -0.008605521 -0.29247478 -0.009487441
-0.15166038 -0.11256394 -0.14819089 -0.11062461 0.09459128 0.07243535 0.07404139 0.013895051
0.20756307 0.15964939 -0.15274434 -0.06611358 0.28537256 0.256292 -0.27749947 -0.24332808
0.054558184 0.10668177 -0.1799498 0.06322166 -0.20302297 -0.034278758 -0.15200214 -0.19957814
0.121733606 0.14407942 -0.1596742 -0.10366529 -0.23485614 -0.12879695 -0.014392595 0.042632483
-0.18571861 -0.23094311 -0.18941265 -0.17563137 0.22994895 0.12740931 0.14433667 0.035855476
-0.16048177 -0.0019416733 0.24284442 0.22699356 -0.18442433 -0.072122745 -0.20130302 -0.25753543
-0.113463886 -0.16750935 0.001232049 0.2997523 -0.24037576 -0.26394093 -0.120148614 -0.08786545
0.009955087 -0.1405164 0.05253965 0.016038025 -0.24332266 -0.25249118 -0.10139031 0.10725811
-0.19016257 -0.21020383 -0.02015772 -0.025142662 0.07186617 -0.058292516 0.24130648 0.21144657
-0.23095268 -0.17672995 -0.20066142 -0.08702457 0.007884753 -0.06749006 -0.22694848 -0.2622569
-0.18466479 -0.11096382 -0.1926062 -0.1124244 -0.07672571 0.16539134 -0.39207995 -0.33406946
-0.13121685 -0.12000393 -0.1513021 -0.10225427 -0.19984269 -0.25426137 -0.16727653 -0.119512096
-0.17160848 -0.15539719 -0.18636356 -0.19933027 -0.22636434 -0.24480475 -0.06667435 0.1453076
-0.08961859 0.007509541 -0.020828776 0.013169473 0.059837125 0.0053159795 0.19584624 0.081810854
0.22721529 0.108353525 -0.25491446 -0.22118638 -0.04191893 -0.12648566 0.064954326 0.1880615

LSTM.weight_hh_l0 f4 [640, 160]
00000000: 757d 273c c267 5abd 5be6 02bd b6a1 203d
00000010: c08b 843c 6f53 92bd d12b bdbc 7e3b 883c
00000020: db53 15bd c8d9 85ba faef 59ba ce73 0cbb
00000030: 107e b53c 5da9 55bc 5fe2 6dbd 1bf3 aa3b
00000040: 510d 84bc 79ab 8c3c bb4d fcbd 0b4b 653d
00000050: 2f7f f73c 0a8c ae3c 98a4 e03c 7f93 b7bc
00000060: 3f6f bfbb ec9d 4b3d f53b a83d d2e0 92bc
00000070: f4dd 1d3d 5264 b4bd 9923 d03c fae6 7ebc
00000080: 1fe4 903c 70bf 883c 1bfb 2d3d b41e e9ba
00000090: 413c 573c d1ed 9ebc eb63 593b b565 593b
000000a0: 2f17 c03c 000d 633d 6983 24bd 8d5d a03d
000000b0: f22b 133c d90f 44bc 26b2 1b3d 16c7 c23c
000000c0: d217 ac3d 6b68 d2bc d0d4 2f3c 1b04 a9ba
000000d0: d039 1dbc 78a6 863c 27a4 9dbc 8fda ef3c
000000e0: 518d 30bd e3ad 2839 7d92 48bd 21e4 3fbb
000000f0: 6d71 c4bc 0b01 6e3d ad1f 9d3d f70c 7abc
00000100: 387b e53c f44a 033b f15e 8f3a 7ccb 843c
00000110: 24c5 543d 1d4d 12bd c646 e9bc dcf3 123d
00000120: f38d 683a 0866 86bc af52 2fbd b9dd bb3c
00000130: c65b 823b f15a c13c f36b 0cbc 2574 933b
00000140: 94df 8ebc 8c60 ad3a e355 80bc 112c 0a3d
00000150: f76a 4b3b ae49 babc c92a 0bbd 379f 0dbd
00000160: 8be1 a13b e1da 0e3d 175d 173d 1f84 6f3d
00000170: 7b6e e73c 8cd5 0c3d 6cef 22bd ae0f 173d
00000180: 9539 e8bc 73db 63bd 6108 293b a753 6dbb
00000190: a4db 7bbd ac6f 16bc fb30 22bd 4fdb 963d
000001a0: aa98 f6bc 23fe ee3c bd54 5d3d c6b8 633c
000001b0: ad8c 603d b3bc 1c3d 773d 353d f335 8e3d
000001c0: 6368 1f3d 9205 5ebb 9e08 4e3d c18c 613d
000001d0: ae88 7dbc 18ed 10bd 8217 6f3c 6107 863d
000001e0: d250 1d3d 4452 493d d5ef 44bd 7bad 37bb
000001f0: 915a 13bc 35bb adbb 9a68 2d3d 30b2 6d3b
00000200: f876 4dbd adc3 153c f656 e93c 872a 5fbc
00000210: 491a 0c3c 455b 4c3b d2d0 4dbd 8cbb 433d
00000220: 1fbc 38bd 0175 1cbd 21b0 923b 6ea2 b13c
00000230: edeb 13bd d17c a5bb c639 a93c 89ac 063d
00000240: 9e07 7ebd 0c42 a5bd f4d9 ad3c 48ed 963d
00000250: a4a7 cb3d 64a8 0abd 6692 53bc 325c abbc
00000260: 5cfc 00bd acac f63b d696 d23c 0ec7 f3bb
00000270: 880b 793d d4d3 413c 6f81 b0bd 9edc 833d
00000280: d37b 963d bb47 04bd a6eb 473d b83f 35bd
00000290: 6b57 ed3c c3d7 4f3d 828e 88bd 2974 193d
000002a0: e005 2f3d 7e52 2e3d 9ef5 653d 7adf 3bbc
000002b0: 791f 7f3d 0a8c 383d 22c4 ba3c 75f8 f63c
000002c0: 03b3 06bd b9b1 3b3c 413c 393d 3fb6 8cbd
000002d0: 616f 8d3d 9d12 1d3c 8a77 49b9 e81f 99bd
000002e0: 31e9 c8bb a7de 0bbd dea6 0dbc b9a2 c13c
000002f0: a4a9 ecbc a132 343b cd0a 9abc 474d 263d
00000300: 570f 1dbd e53d 33bd 68e1 063d 7712 423c
00000310: 0c39 8fbc bd7f 2c3d 3bb8 dabd 7a27 973c
00000320: 3546 de3c 3355 6e3c d334 b33c 7eb6 833d
00000330: dac2 5f3d 8636 16bb 75ee 153d 996f b6bc
00000340: 0002 d3bc 277a 51bd 0db3 a6bc 2fa2 b73d
00000350: c25b 34bd 4653 36bd 2bc2 973d 38f0 98bd
00000360: 181f 91bd 35de 1ebd 46a4 ffb9 5f8e 91bc
00000370: b8ff 633c 1f6c 7ebc 137f 99bc 7923 693c
00000380: d2c1 aabd cc27 2cbd 4368 313d 0b40 333d
00000390: f601 d73d 498f 94bb d367 4d3c 61f9 853d
000003a0: e0b4 313d 3c03 3c3c afa4 1fbd a893 26bc
000003b0: a9ba 0c3d 8e58 1d3d 3a7e 36bd 141f 1a3d
000003c0: f32e 6e3d 1927 0c3c 827f 0f3d 9681 f4bc
000003d0: be99 053d 7080 a83d daf8 11bc ee27 5cbd
000003e0: 163c 16bc 82d4 d33b 53fd 313c 84cc 0dbb
000003f0: 5bef 953c 93f1 1f3c 6fe7 413d 239f 14bd
0.010222782 -0.053321607 -0.031957965 0.03921672 0.01617992 -0.0714482 -0.023092182 0.01662993
-0.036456924 -0.0010211999 -0.00083136524 -0.002143133 0.022154838 -0.013040868 -0.058077212 0.0052169687
-0.016119631 0.017171608 -0.123195134 0.05597977 0.030212013 0.02130701 0.027422234 -0.022409199
-0.005842119 0.049711153 0.08214561 -0.017929468 0.03854175 -0.08808197 0.0254076 -0.015557999
0.017686902 0.016692847 0.0424758 -0.001778564 0.013136924 -0.01940051 0.0033171128 0.0033172194
0.023448555 0.05543232 -0.040164385 0.078303434 0.008982645 -0.011966669 0.038011692 0.023776572
0.08402981 -0.025684556 0.010731891 -0.00128949 -0.009596303 0.0164368 -0.019243313 0.029279022
-0.04310352 0.00016086506 -0.048967827 -0.0029280263 -0.023979867 0.058106463 0.07672057 -0.01526188
0.028012857 0.002003369 0.0010938329 0.01621031 0.05194582 -0.035718072 -0.02847613 0.035877094
0.000887125 -0.016406074 -0.042803463 0.022932874 0.0039782254 0.023602935 -0.008570659 0.0044999295
-0.017440595 0.0013227626 -0.015665954 0.03373343 0.0031039098 -0.022740211 -0.03397635 -0.034575667
0.004940217 0.034876708 0.03695401 0.05847561 0.028250923 0.03438334 -0.03977911 0.036880188
-0.02834777 -0.055629205 0.0025792348 -0.003621319 -0.061488762 -0.009181898 -0.039597493 0.073660485
-0.030102093 0.029173916 0.05403589 0.013899034 0.05482166 0.038265895 0.04424807 0.06943884
0.03891791 -0.0033877832 0.050301187 0.055065874 -0.0154744815 -0.03538236 0.014593007 0.06544376
0.038407154 0.04915072 -0.048080284 -0.0028026986 -0.008993761 -0.005301858 0.042336084 0.0036269538
-0.050162286 0.009140891 0.028483849 -0.013620979 0.008551189 0.003118233 -0.050247975 0.04778628
-0.04510128 -0.03819752 0.0044765626 0.021683898 -0.03611367 -0.0050502797 0.020657431 0.032879386
-0.062018983 -0.08069238 0.021222092 0.073694766 0.09944084 -0.033851996 -0.012913322 -0.020917986
-0.03149067 0.0075279083 0.02570669 -0.0074395007 0.060802013 0.011830289 -0.086184375 0.06438564
0.07347836 -0.03229497 0.048808716 -0.04425022 0.028972348 0.050742876 -0.06667806 0.037464295
0.042730212 0.04255914 0.056142442 -0.011466855 0.062285874 0.045055427 0.022798602 0.03014777
-0.032885563 0.011455947 0.04522348 -0.06870698 0.069060095 0.009586957 -0.00019213386 -0.07476789
-0.006131314 -0.034147885 -0.008645741 0.023637163 -0.028889485 0.0027495997 -0.018803978 0.04060104
-0.038344707 -0.0437602 0.032929808 0.011845223 -0.017483257 0.04211401 -0.106796704 0.018451441
0.027133087 0.01454668 0.021875774 0.06431292 0.054629184 -0.0022920682 0.036604363 -0.02227001
-0.02575779 -0.051141884 -0.02034905 0.08966481 -0.04403282 -0.04451301 0.074100815 -0.07467693
-0.07086009 -0.038786132 -0.00048759783 -0.017768083 0.013915949 -0.015528708 -0.018737352 0.014229649
-0.083377495 -0.04203014 0.043312322 0.043762248 0.10498421 -0.0045336825 0.012536961 0.06541706
0.043385386 0.0114753805 -0.038975414 -0.01016704 0.0343577 0.03841453 -0.044553973 0.037627295
0.058150243 0.0085542435 0.03503371 -0.029846948 0.032617323 0.082276225 -0.0089094285 -0.053749017
-0.009169599 0.006464542 0.01086362 -0.0021636793 0.01830261 0.009762186 0.047339853 -0.036284577

LSTM.bias_ih_l0 f4 [640]
00000000: 277d b03f 5593 8f3e 3773 2140 5a6a 4bbe
00000010: d167 80bd 7625 e9bf dd74 9bbf b673 853f
00000020: 76f3 b03e a74f 03bf 8dbd 7cbe bb26 6abf
00000030: 08ca 293f efa2 4e3f ca43 77bf 76b9 8b3c
00000040: 70e5 c43f e345 183d 97ef 2d3e 25db 21bf
00000050: 09fa 68bf 64ee 1abf beb7 13bf b724 2dbf
00000060: fb4b 233b c63e 10c0 0b9d 003f 21ec 87bf
00000070: 72a3 74bf bc0c e43e 6897 73bf 806d bfbf
00000080: d9eb 833f 8ead 243e 960e d13d dbed 963f
00000090: 021a 913f 0737 03bf c637 b3bf 13b1 febd
000000a0: b4ac eabe 945b fcbf 66f0 df3e 9b59 bdbe
000000b0: 179d 21bf 65dd f4bf 3b9b adbf 58b2 943f
000000c0: b0e6 4b3d 9d83 e73f 71cd 3dbd 462a 1b40
000000d0: 26c7 89bf 6d1f f63f f86a 5e3e f5f3 513f
000000e0: 4fd9 ae3e 0d61 9a3e 1362 adbf b7b5 b93e
000000f0: 3f15 703f bfb4 463d 38e8 a4bf f930 1340
00000100: 48af fbbe d1f2 c3bf 979f f83f a64e e0bc
00000110: 53a5 9cbf 896c 9f3f 8556 ecbf 2040 f23f
00000120: 093e ea3f 616a af3d 96ba 1b3e f020 05bf
00000130: 46cb 25bc 0aff 7abe 76a2 023f 006c c13d
00000140: 8bf9 fabf cc0c 8e3d 83ba f9bf e1c3 1340
00000150: bbff 0440 b075 91be 8909 2f3d 24f7 3d3e
00000160: 4fcd 28be d63e 8ebe 7734 d5be 48a6 7a3f
00000170: a93a 543e 8d13 3d3f fea5 4dbf 459d 413e
00000180: 7b05 253b cfcc 89bf ea52 b63e 5976 203f
00000190: 744e 933e 9dea 25bf 5e1c 79bf 337a 273f
000001a0: 7409 ba3e 95f6 663f 8083 06bf ca77 9cbf
000001b0: ed32 5b3f 2452 99be 52ad 473f ab5c bcbf
000001c0: 2147 8b3f 4142 e13f 8e3e fabe b86d c33e
000001d0: 6071 eabe 1dcb bf3d 7e4a 7c3d 9195 b63f
000001e0: 8152 1240 6753 a4bf e192 9b3f ad6f febf
000001f0: 0dce 733f 33d8 373f 18aa 93bd ea11 813f
00000200: 635d 803e 2431 72bf 56b4 243f 9710 c73f
00000210: d7aa 6e3c 6477 74bf 21b8 083f 07fe 8bbf
00000220: 442b 9abf 073c e63e da8c a23f e1ba fe3e
00000230: 58a5 d6be 65a3 c9bf e283 403f 57f4 aabe
00000240: d40c 59bc 1df9 de3e ed20 203f aa17 1bbf
00000250: 01fa 753d a593 d2bf a02a 6ebf c016 27be
00000260: bb53 943e be3d c4bf 0f26 94bf efdf b0bf
00000270: 2242 483f eff1 aabe b1ee 523f c946 fbbf
00000280: 8c48 fdbf 3003 cfbe 776a 0ac0 9e64 be3e
00000290: 4fc6 bb3d ee25 9a3e d5b6 c5bf 6de3 2b3f
000002a0: 7e6e 78bf 4054 85bf 9bc0 bcbf 0f53 bbbf
000002b0: 9f61 d4bf b09d 71bf d83c 8cbf fe44 683e
000002c0: e9d3 f93e 459e 72bf dacf 763e b60e b83f
000002d0: 2c6c eb3f 2916 b4be 594f b2bc 5ca2 173f
000002e0: 42a5 803f 1beb b23f 12fd 3bbf e7cc b4bd
000002f0: f06f 89bf e4a3 bf3f 77d6 6f3f df87 efbe
00000300: 1a97 8c3f 6be2 923f 4c9d 123e 660f 2fbf
00000310: 9444 09bf 6791 7fbe 9e32 bc3f 4927 cd3e
00000320: 7ec2 08bf 5d3f 8abf 06c5 153f 5e4c 4ebe
00000330: c60b 313f 9abe a5bf 969b a0bf 5c71 1a3f
00000340: dbc5 753e a639 ac3e 5367 103f 7709 d93f
00000350: 0658 e33e 42b2 17c0 fae6 5cbe 9084 2f3f
00000360: 2b7f f93e 3e47 8f3e 7267 aa3e ebed 60be
00000370: ccf7 9abf 19e6 a43f f2cf d53e 0c2a c7be
00000380: 4856 bebf dd06 93be 1019 003f 9b13 9dbe
00000390: 8ade b5bf 318e 23bf 47e2 82bf 7a9e b43f
000003a0: 5872 2bbf cded a43e 4135 a6bf 1eff 60bf
000003b0: 5851 c4bf bfaf 65bc 075a d1bf fc81 dd3f
000003c0: 3acf febe 261a 2b3f 2e53 ed3e 98a9 9a3f
000003d0: dccf 903f f238 abbf 7e6e fd3f 49e8 463f
000003e0: 8a7d 093f 0b2e 103c a246 d3be ffb6 593f
000003f0: 5d43 d63f a535 43bf 5ac2 0340 4ec6 19bf
1.3788193 0.28042093 2.5226572 -0.19864789 -0.062698014 -1.8214557 -1.2145039 1.0425937
0.34560746 -0.51293415 -0.24681683 -0.9146535 0.663239 0.80717367 -0.9658781 0.017056208
1.5382519 0.037176024 0.16985928 -0.63225013 -0.91006523 -0.60520005 -0.57702243 -0.6763415
0.0024917114 -2.2538314 0.5023963 -1.0618936 -0.955619 0.44540966 -0.951529 -1.4955292
1.030635 0.16081831 0.1020786 1.1791338 1.1336062 -0.5125584 -1.4001396 -0.12436118
-0.45834887 -1.9715447 0.43738097 -0.36982426 -0.63130325 -1.9130064 -1.3562998 1.1616926
0.049780548 1.808704 -0.046338502 2.4244552 -1.07639 1.922834 0.21720493 0.82012874
0.34150168 0.3015217 -1.3545555 0.3627145 0.9378242 0.048512217 -1.2883368 2.299864
-0.49157166 -1.5308477 1.9423703 -0.027381252 -1.2237953 1.2454997 -1.8463904 1.8925819
1.8300182 0.08565212 0.15207896 -0.52003384 -0.010119265 -0.24511352 0.51029146 0.094444275
-1.9607404 0.069360346 -1.9510044 2.3088305 2.0781085 -0.284101 0.042733703 0.18551308
-0.16484569 -0.27782315 -0.4164159 0.97909975 0.20725502 0.7385796 -0.8033141 0.1890765
0.0025180269 -1.0765628 0.35610133 0.62680584 0.28770792 -0.64811116 -0.9730891 0.65420836
0.36335337 0.90220004 -0.52544403 -1.2224057 0.8562458 -0.2994548 0.7799884 -1.471578
1.0881082 1.7598344 -0.4887585 0.38169646 -0.45789623 0.09364913 0.06159448 1.4264394
2.2862856 -1.2837952 1.2154199 -1.9877831 0.95236284 0.7181427 -0.07210177 1.0083592
0.25071248 -0.9460623 0.6433767 1.5551938 0.014567099 -0.95494676 0.5340596 -1.0936898
-1.2044454 0.44967672 1.2699234 0.49751952 -0.41923022 -1.5752989 0.7520124 -0.33389542
-0.013247687 0.43549433 0.6255024 -0.60582983 0.060052875 -1.6451308 -0.9303379 -0.16317272
0.2897013 -1.5331342 -1.1574115 -1.3818339 0.7822591 -0.33387706 0.82395464 -1.9630977
-1.9787765 -0.4043212 -2.162748 0.3718614 0.09168684 0.30107063 -1.5446421 0.671439
-0.970436 -1.0416336 -1.4746279 -1.4634722 -1.6592292 -0.9438124 -1.0956068 0.22682568
0.48794487 -0.9477275 0.24102727 1.437949 1.8392386 -0.35173157 -0.021766352 0.59232116
1.0050433 1.3977998 -0.7343303 -0.088281445 -1.0737286 1.497189 0.9368662 -0.4678335
1.0983613 1.1475347 0.14317816 -0.6838287 -0.53620267 -0.2495781 1.4702947 0.40069035
-0.5342177 -1.0800587 0.5850376 -0.2014632 0.6915859 -1.2948792 -1.2547481 0.6032922
0.24001257 0.33637732 0.5640766 1.6956013 0.44403094 -2.370255 -0.21572486 0.6856165
0.48729834 0.2798404 0.33282048 -0.21965759 -1.2106872 1.288272 0.41760212 -0.38899267
-1.4870081 -0.28716174 0.5003824 -0.3067902 -1.4208539 -0.6388884 -1.0225304 1.4110863
-0.6697135 0.32212678 -1.2985002 -0.8788928 -1.5337324 -0.014018952 -1.6355599 1.7305293
-0.49767476 0.66836774 0.46352524 1.2083006 1.1313434 -1.3376753 1.9799345 0.7769819
0.5370718 0.00880004 -0.41264826 0.85044855 1.6739308 -0.7625373 2.0587373 -0.60068214

LSTM.bias_hh_l0 f4 [640]
00000000: 5147 c5bc f10f 55bf d135 d03f 40c3 6b40
00000010: 4f75 813f 010b cfbf cdbf e6bd 8456 6b3e
00000020: c7c3 fbbe 918a 083f d700 a23d 9c84 b03e
00000030: 2915 3c3f 1a62 c1bf 10d1 013f b5e0 a83f
00000040: 361a 0cbf e472 803e a9fb cbbe ba22 f73d
00000050: 67a5 413e 1883 3c3f 42f2 a3be ccf2 323f
00000060: 9a77 4f3f 01cb fa3e 09be 74bf 89d3 e4bd
00000070: 3e12 0640 3469 d93d 8752 99bf 0b56 adbc
00000080: f312 9e3f 7f3e 9ebe 6fd0 bebf eaaf 91bf
00000090: 7da8 1fbf ec36 1d3f 2c43 e33e fe11 603f
000000a0: c66c 55bf 8205 6a3f a06c b7bf f4f7 62bf
000000b0: 50cf 2340 8cb9 303f 7ff7 503e c0a4 2cbf
000000c0: 6496 9cbd d781 ad3d 9c37 613e 03f9 0c3f
000000d0: 7e90 973e 2703 3f3f 3c7c c4bf b4ff 83bf
000000e0: db0f a2be 595f c13e c24f 1cbf 6987 cc3e
000000f0: 54d5 c93f 831b a53e f5a4 d1bd f716 053f
00000100: 4c42 4c3f 06a4 a13e 0278 803f 0c9b 75bf
00000110: e13c 29be 1346 3d3f 9fac 643f a3a4 8c3e
00000120: 5e9c 063f 92e5 38bf 63ff 9f3e 8d24 3fbe
00000130: 9edb 85bf f0ee 663e 2c20 39be c14f f73f
00000140: 2e74 82be b2cc a53d b196 963e 6ac4 fb3f
00000150: e5ee 843e 8a6a a83f a3ce 83bf 45c1 043f
00000160: 815d cfbf 32d8 4a3e d6ed 40bf fa7b aa3d
00000170: 9666 1ebf 2523 f8bf 506f d53f 70b0 8b3f
00000180: 560b e23f 7c75 1b3f aa2b 07bf f604 58be
00000190: d260 973e b3b6 f8bf 0b70 16c0 79ab 723f
000001a0: b100 dabe 7ada 2e3f 9d1b 743f f1ea 653f
000001b0: d467 95be 63e9 aebe d474 d3bd c426 6b3e
000001c0: 36af 38bf a9be ba3f f6ff 393f be2d 6540
000001d0: 481b 2e3d 95ce b6bf b87a 893f 88b0 86bf
000001e0: fbb5 9cbd 6959 043e 9cc0 1940 0892 aabf
000001f0: d643 2abd d9ab 55bc f5fd dfbe 1d4b 40be
00000200: d665 db3e 0a27 043f c6e5 03bf 4516 74be
00000210: bbdf 0740 2705 b33e ac82 e83e 7fc7 5bbf
00000220: 9d6d 163f ea0c efbd 1a0f 05bf ba14 4fbf
00000230: 004e b6be 68a9 eebd 1a54 6e3f eefb a13f
00000240: 2cf6 1f3f a4f7 80bf 75e1 92bd ffe0 873f
00000250: 48df c7bf 59fc d63e af07 6bbf 84eb 49bf
00000260: 6e66 68bf 977b 8fbf 1d55 eebf d8b9 b7bf
00000270: 13a9 1abf 4df1 983f a2b9 2e3f 24be 01be
00000280: 7eb7 483e ef1f a0bf 3cd8 efbe 07f9 813f
00000290: 1f5c f8be 72d7 513e a13f 313f 5ecb 5fbf
000002a0: e275 b53c 5cef 1cbe 6032 43bf 6c00 a83e
000002b0: ef41 583d 1436 753e f999 3d3f 7837 44bf
000002c0: 381d 6dbf 5867 c83e d81a 943d 4414 50bf
000002d0: 9fb4 df3d 3741 5f3f fa15 643f 311d 14bf
000002e0: c433 473f 08f2 b33f b205 503f 0b6c 4e3e
000002f0: b3a0 69bf 6849 e5bf e150 063c 9102 3a3f
00000300: 8c47 bd3f 9b2b b13e a7b0 163f fdeb 1dbf
00000310: 758f a23f d5a7 48bf c8ea 05be 89bb 9e3d
00000320: 7bf8 293e 2626 3fbe 5916 aabe 6677 b33f
00000330: bbe7 d8be 16a3 f7bd c15f c1bf 0015 76be
00000340: cd54 043e 69c4 ec3f af23 66be eb4f 77be
00000350: 675b 19bf 43f0 8f3e e432 d7be 82f0 45bf
00000360: d087 0f3f 3da5 e33d 382a b5bd a243 783f
00000370: 0590 af3e db40 5ebe f849 59bf f9ba 253f
00000380: 4f2b c6bf 0e6a 713e dae4 07bf 6dc7 96bf
00000390: e5b1 96bf bc7e 813f 10cd f4bf 152d 15bf
000003a0: 3b11 4bbe a7a9 8abd 9c39 bfbc 4986 6dbf
000003b0: 7062 053c 8814 29bf 775c 173f 61a0 c9bf
000003c0: 1ef9 9c3a f945 83be 9013 07bf 1a7f 783f
000003d0: 141a 39bf d134 2dbf b9f9 153f 72e4 d3bf
000003e0: 091b 1ebd 30db dfbf 6b07 293e 337f 503f
000003f0: 2f82 413e b877 ff3f 2edc 1abf a8ef c6bc
-0.024081858 -0.8322745 1.6266423 3.683792 1.0113925 -1.6175233 -0.11267052 0.22982222
-0.49172804 0.53336436 0.079103164 0.34476173 0.7346979 -1.5108063 0.5070963 1.3193575
-0.54727495 0.25087655 -0.3984044 0.120671704 0.18910752 0.73637533 -0.32020766 0.6990173
0.8104187 0.48983005 -0.9560247 -0.1117316 2.0948634 0.10615769 -1.197831 -0.021159193
1.2349533 -0.30907056 -1.4907359 -1.138181 -0.6236647 0.6141193 0.44387186 0.87527454
-0.833691 0.91414654 -1.4330025 -0.88659596 2.5595284 0.6903312 0.20406912 -0.6743889
-0.07645872 0.084720306 0.2199387 0.5506746 0.29602426 0.74614185 -1.5350413 -1.0312409
-0.31652722 0.37768057 -0.610592 0.3994706 1.5768228 0.32247552 -0.10236541 0.51988167
0.7978866 0.31570452 1.0036623 -0.9593971 -0.1652713 0.7393505 0.893259 0.27469358
0.5258235 -0.72225296 0.31249532 -0.18666287 -1.0457647 0.22552085 -0.18078679 1.9321214
-0.25479263 0.08095683 0.29411843 1.9669316 0.25963512 1.3157513 -1.0297436 0.51857406
-1.620041 0.19809034 -0.7536291 0.08324428 -0.61875284 -1.9385725 1.6674595 1.091322
1.765971 0.6072614 -0.52801 -0.21095642 0.29566056 -1.9430755 -2.3505886 0.94792897
-0.42578653 0.6830212 0.95354635 0.8981162 -0.29180777 -0.34162435 -0.103250176 0.22964007
-0.7214235 1.4589435 0.7265619 3.580917 0.042506486 -1.4281794 1.0740576 -1.0522623
-0.076518975 0.12924732 2.402381 -1.3325815 -0.0415686 -0.01304146 -0.4374844 -0.18778653
0.42851132 0.5162207 -0.5152248 -0.2383662 2.1230304 0.34964868 0.45412195 -0.8585128
0.58761007 -0.11672385 -0.5197617 -0.80891 -0.35606384 -0.116534054 0.9309708 1.2655008
0.62485003 -1.0075574 -0.07171909 1.0615538 -1.5615015 0.419894 -0.918086 -0.78874993
-0.90781295 -1.1209592 -1.8619725 -1.435359 -0.60414237 1.1948639 0.68252003 -0.12670189
0.19601247 -1.2509745 -0.4684466 1.0154122 -0.48507783 0.20492342 0.69237715 -0.8741969
0.022150937 -0.15325683 -0.7624874 0.32812822 0.052797254 0.2394641 0.7406307 -0.7664714
-0.9262271 0.39141345 0.072316825 -0.8128092 0.109231226 0.87208885 0.89096034 -0.5785704
0.77813363 1.4058237 0.8125869 0.20158403 -0.9126083 -1.7913027 0.008197994 0.72660166
1.4787459 0.3460358 0.588633 -0.61688215 1.270003 -0.7838109 -0.13077843 0.07750613
0.16598694 -0.18666896 -0.33220175 1.4020813 -0.42364296 -0.12091653 -1.5107347 -0.24031448
0.12922974 1.849744 -0.2247455 -0.2415158 -0.59905094 0.28112993 -0.42031014 -0.7732011
0.5606661 0.11115501 -0.08845943 0.969782 0.34289566 -0.21704428 -0.8487849 0.6473842
-1.5481967 0.23575613 -0.53083575 -1.177961 -1.1773039 1.0116801 -1.912508 -0.58271915
-0.19830792 -0.0677064 -0.0233429 -0.9278303 0.008141145 -0.66046953 0.59125465 -1.5752069
0.0011976098 -0.25639322 -0.52764225 0.9706894 -0.7230542 -0.67658716 0.5858417 -1.6554091
-0.0386 -1.7488766 0.16506736 0.8144409 0.18897317 1.995841 -0.6049222 -0.024284199
